…
/a/default-user=s64","userId":"18025890290127329739"}},"outputId":"f4333d12-7ebd-47fb-c1e8-8b5d731d65a5"},"execution_count":41,"outputs":[{"output_type":"stream","name":"stdout","text":["Model: \"mobilenet_1.00_224\"\n","_________________________________________________________________\n"," Layer (type)                Output Shape              Param #   \n","=================================================================\n"," input_2 (InputLayer)        [(None, 32, 32, 3)]       0         \n","                                                                 \n"," conv1 (Conv2D)              (None, 16, 16, 32)        864       \n","                                                                 \n"," conv1_bn (BatchNormalizatio  (None, 16, 16, 32)       128       \n"," n)                                                              \n","                                                                 \n"," conv1_relu (ReLU)           (None, 16, 16, 32)        0         \n","                                                                 \n"," conv_dw_1 (DepthwiseConv2D)  (None, 16, 16, 32)       288       \n","                                                                 \n"," conv_dw_1_bn (BatchNormaliz  (None, 16, 16, 32)       128       \n"," ation)                                                          \n","                                                                 \n"," conv_dw_1_relu (ReLU)       (None, 16, 16, 32)        0         \n","                                                                 \n"," conv_pw_1 (Conv2D)          (None, 16, 16, 64)        2048      \n","                                                                 \n"," conv_pw_1_bn (BatchNormaliz  (None, 16, 16, 64)       256       \n"," ation)                                                          \n","                                                                 \n"," conv_pw_1_relu (ReLU)       (None, 16, 16, 64)        0         \n","                                                                 \n"," conv_pad_2 (ZeroPadding2D)  (None, 17, 17, 64)        0         \n","                                                                 \n"," conv_dw_2 (DepthwiseConv2D)  (None, 8, 8, 64)         576       \n","                                                                 \n"," conv_dw_2_bn (BatchNormaliz  (None, 8, 8, 64)         256       \n"," ation)                                                          \n","                                                                 \n"," conv_dw_2_relu (ReLU)       (None, 8, 8, 64)          0         \n","                                                                 \n"," conv_pw_2 (Conv2D)          (None, 8, 8, 128)         8192      \n","                                                                 \n"," conv_pw_2_bn (BatchNormaliz  (None, 8, 8, 128)        512       \n"," ation)                                                          \n","                                                                 \n"," conv_pw_2_relu (ReLU)       (None, 8, 8, 128)         0         \n","                                                                 \n"," conv_dw_3 (DepthwiseConv2D)  (None, 8, 8, 128)        1152      \n","                                                                 \n"," conv_dw_3_bn (BatchNormaliz  (None, 8, 8, 128)        512       \n"," ation)                                                          \n","                                                                 \n"," conv_dw_3_relu (ReLU)       (None, 8, 8, 128)         0         \n","                                                                 \n"," conv_pw_3 (Conv2D)          (None, 8, 8, 128)         16384     \n","                                                                 \n"," conv_pw_3_bn (BatchNormaliz  (None, 8, 8, 128)        512       \n"," ation)                                                          \n","                                                                 \n"," conv_pw_3_relu (ReLU)       (None, 8, 8, 128)         0         \n","                                                                 \n"," conv_pad_4 (ZeroPadding2D)  (None, 9, 9, 128)         0         \n","                                                                 \n"," conv_dw_4 (DepthwiseConv2D)  (None, 4, 4, 128)        1152      \n","                                                                 \n"," conv_dw_4_bn (BatchNormaliz  (None, 4, 4, 128)        512       \n"," ation)                                                          \n","                                                                 \n"," conv_dw_4_relu (ReLU)       (None, 4, 4, 128)         0         \n","                                                                 \n"," conv_pw_4 (Conv2D)          (None, 4, 4, 256)         32768     \n","                                                                 \n"," conv_pw_4_bn (BatchNormaliz  (None, 4, 4, 256)        1024      \n"," ation)                                                          \n","                                                                 \n"," conv_pw_4_relu (ReLU)       (None, 4, 4, 256)         0         \n","                                                                 \n"," conv_dw_5 (DepthwiseConv2D)  (None, 4, 4, 256)        2304      \n","                                                                 \n"," conv_dw_5_bn (BatchNormaliz  (None, 4, 4, 256)        1024      \n"," ation)                                                          \n","                                                                 \n"," conv_dw_5_relu (ReLU)       (None, 4, 4, 256)         0         \n","                                                                 \n"," conv_pw_5 (Conv2D)          (None, 4, 4, 256)         65536     \n","                                                                 \n"," conv_pw_5_bn (BatchNormaliz  (None, 4, 4, 256)        1024      \n"," ation)                                                          \n","                                                                 \n"," conv_pw_5_relu (ReLU)       (None, 4, 4, 256)         0         \n","                                                                 \n"," conv_pad_6 (ZeroPadding2D)  (None, 5, 5, 256)         0         \n","                                                                 \n"," conv_dw_6 (DepthwiseConv2D)  (None, 2, 2, 256)        2304      \n","                                                                 \n"," conv_dw_6_bn (BatchNormaliz  (None, 2, 2, 256)        1024      \n"," ation)                                                          \n","                                                                 \n"," conv_dw_6_relu (ReLU)       (None, 2, 2, 256)         0         \n","                                                                 \n"," conv_pw_6 (Conv2D)          (None, 2, 2, 512)         131072    \n","                                                                 \n"," conv_pw_6_bn (BatchNormaliz  (None, 2, 2, 512)        2048      \n"," ation)                                                          \n","                                                                 \n"," conv_pw_6_relu (ReLU)       (None, 2, 2, 512)         0         \n","                                                                 \n"," conv_dw_7 (DepthwiseConv2D)  (None, 2, 2, 512)        4608      \n","                                                                 \n"," conv_dw_7_bn (BatchNormaliz  (None, 2, 2, 512)        2048      \n"," ation)                                                          \n","                                                                 \n"," conv_dw_7_relu (ReLU)       (None, 2, 2, 512)         0         \n","                                                                 \n"," conv_pw_7 (Conv2D)          (None, 2, 2, 512)         262144    \n","                                                                 \n"," conv_pw_7_bn (BatchNormaliz  (None, 2, 2, 512)        2048      \n"," ation)                                                          \n","                                                                 \n"," conv_pw_7_relu (ReLU)       (None, 2, 2, 512)         0         \n","                                                                 \n"," conv_dw_8 (DepthwiseConv2D)  (None, 2, 2, 512)        4608      \n","                                                                 \n"," conv_dw_8_bn (BatchNormaliz  (None, 2, 2, 512)        2048      \n"," ation)                                                          \n","                                                                 \n"," conv_dw_8_relu (ReLU)       (None, 2, 2, 512)         0         \n","                                                                 \n"," conv_pw_8 (Conv2D)          (None, 2, 2, 512)         262144    \n","                                                                 \n"," conv_pw_8_bn (BatchNormaliz  (None, 2, 2, 512)        2048      \n"," ation)                                                          \n","                                                                 \n"," conv_pw_8_relu (ReLU)       (None, 2, 2, 512)         0         \n","                                                                 \n"," conv_dw_9 (DepthwiseConv2D)  (None, 2, 2, 512)        4608      \n","                                                                 \n"," conv_dw_9_bn (BatchNormaliz  (None, 2, 2, 512)        2048      \n"," ation)                                                          \n","                                                                 \n"," conv_dw_9_relu (ReLU)       (None, 2, 2, 512)         0         \n","                                                                 \n"," conv_pw_9 (Conv2D)          (None, 2, 2, 512)         262144    \n","                                                                 \n"," conv_pw_9_bn (BatchNormaliz  (None, 2, 2, 512)        2048      \n"," ation)                                                          \n","                                                                 \n"," conv_pw_9_relu (ReLU)       (None, 2, 2, 512)         0         \n","                                                                 \n"," conv_dw_10 (DepthwiseConv2D  (None, 2, 2, 512)        4608      \n"," )                                                               \n","                                                                 \n"," conv_dw_10_bn (BatchNormali  (None, 2, 2, 512)        2048      \n"," zation)                                                         \n","                                                                 \n"," conv_dw_10_relu (ReLU)      (None, 2, 2, 512)         0         \n","                                                                 \n"," conv_pw_10 (Conv2D)         (None, 2, 2, 512)         262144    \n","                                                                 \n"," conv_pw_10_bn (BatchNormali  (None, 2, 2, 512)        2048      \n"," zation)                                                         \n","                                                                 \n"," conv_pw_10_relu (ReLU)      (None, 2, 2, 512)         0         \n","                                                                 \n"," conv_dw_11 (DepthwiseConv2D  (None, 2, 2, 512)        4608      \n"," )                                                               \n","                                                                 \n"," conv_dw_11_bn (BatchNormali  (None, 2, 2, 512)        2048      \n"," zation)                                                         \n","                                                                 \n"," conv_dw_11_relu (ReLU)      (None, 2, 2, 512)         0         \n","                                                                 \n"," conv_pw_11 (Conv2D)         (None, 2, 2, 512)         262144    \n","                                                                 \n"," conv_pw_11_bn (BatchNormali  (None, 2, 2, 512)        2048      \n"," zation)                                                         \n","                                                                 \n"," conv_pw_11_relu (ReLU)      (None, 2, 2, 512)         0         \n","                                                                 \n"," conv_pad_12 (ZeroPadding2D)  (None, 3, 3, 512)        0         \n","                                                                 \n"," conv_dw_12 (DepthwiseConv2D  (None, 1, 1, 512)        4608      \n"," )                                                               \n","                                                                 \n"," conv_dw_12_bn (BatchNormali  (None, 1, 1, 512)        2048      \n"," zation)                                                         \n","                                                                 \n"," conv_dw_12_relu (ReLU)      (None, 1, 1, 512)         0         \n","                                                                 \n"," conv_pw_12 (Conv2D)         (None, 1, 1, 1024)        524288    \n","                                                                 \n"," conv_pw_12_bn (BatchNormali  (None, 1, 1, 1024)       4096      \n"," zation)                                                         \n","                                                                 \n"," conv_pw_12_relu (ReLU)      (None, 1, 1, 1024)        0         \n","                                                                 \n"," conv_dw_13 (DepthwiseConv2D  (None, 1, 1, 1024)       9216      \n"," )                                                               \n","                                                                 \n"," conv_dw_13_bn (BatchNormali  (None, 1, 1, 1024)       4096      \n"," zation)                                                         \n","                                                                 \n"," conv_dw_13_relu (ReLU)      (None, 1, 1, 1024)        0         \n","                                                                 \n"," conv_pw_13 (Conv2D)         (None, 1, 1, 1024)        1048576   \n","                                                                 \n"," conv_pw_13_bn (BatchNormali  (None, 1, 1, 1024)       4096      \n"," zation)                                                         \n","                                                                 \n"," conv_pw_13_relu (ReLU)      (None, 1, 1, 1024)        0         \n","                                                                 \n","=================================================================\n","Total params: 3,228,864\n","Trainable params: 3,206,976\n","Non-trainable params: 21,888\n","_________________________________________________________________\n"]}]},{"cell_type":"code","metadata":{"colab":{"base_uri":"https://localhost:8080/"},"
…
\n","\n","model = Sequential()\n","\n","model.add(base_model)\n","\n","model.add(Flatten())\n","\n","model.add(Dense(128, activation='relu'))\n","model.add(Dropout(0.5))\n","model.add(Dense(n_classes, activation='softmax'))\n","\n","model.summary()"],"execution_count":58,"outputs":[{"output_type":"stream","name":"stdout","text":["Model: \"sequential_4\"\n","_________________________________________________________________\n"," Layer (type)                Output Shape              Param #   \n","=================================================================\n"," mobilenet_1.00_224 (Functio  (None, 1, 1, 1024)       3228864   \n"," nal)                                                            \n","                                                                 \n"," flatten_4 (Flatten)         (None, 1024)              0         \n","                                                                 \n"," dense_8 (Dense)             (None, 128)               131200    \n","                                                                 \n"," dropout_4 (Dropout)         (None, 128)               0         \n","                                                                 \n"," dense_9 (Dense)             (None, 43)                5547      \n","                                                                 \n","=================================================================\n","Total params: 3,365,611\n","Trainable params: 3,343,723\n","Non-trainable params: 21,888\n","_________________________________________________________________\n"]}]},{"cell_type":"code","metadata":{"id":"ndPGvLsXx0XF","executionInfo":{"status":"ok",
…
